Supplementary/best_simple_cnn.pth (torch, 407209 bytes, 26 tensors)

features.0.weight f4 [16, 3, 3, 3]
0	0x3cdfaf88	0.02730538
1	0xbcd86ee1	-0.026420059
2	0xbe4ddad0	-0.20103002
3	0xbc8774fd	-0.016535277
4	0xbc751d97	-0.014960668
5	0xbd7caf24	-0.061690465
6	0x3e41b040	0.1891489
7	0xbd2c6678	-0.04208991
8	0x3decc249	0.115604945
9	0x3d17e66c	0.03708498
10	0xbe2d6efe	-0.16936871
11	0x3d058fa0	0.032607675
12	0x3e1a61ba	0.15076342
13	0xbe05715a	-0.13031521
14	0xbe095703	-0.13412099
15	0x3e3a88a1	0.18216182
16	0x3e1ce82b	0.1532294
17	0xbde7e488	-0.11322886
18	0x3df6aa5e	0.12044214
19	0x3b908621	0.0044105207
20	0xbe2ebfd9	-0.17065372
21	0xbd669456	-0.056293808
22	0xbb1d8ef0	-0.0024041496
23	0xbdfde8b0	-0.12397897
24	0x3cd869ea	0.026417691
25	0xbe3b6986	-0.18301973
26	0x3dcf20d1	0.10113681
27	0x3e266d3a	0.16252604
28	0x3dde02e2	0.108403936
29	0x3d06193b	0.032738905
30	0x3d7f4074	0.062317327
31	0xbe0ccd01	-0.13750078
32	0xbd412766	-0.047156714
33	0xbc9629b9	-0.018330442
34	0xbdd35ff1	-0.10321034
35	0xbe117e08	-0.14208233
36	0x3db6286d	0.08894429
37	0x3d5c6b7e	0.05381345
38	0xbe4819b6	-0.19541058
39	0x3df0def8	0.11761278
40	0x3d625d76	0.055264913
41	0x3e4799ad	0.19492216
42	0x3e14f9b6	0.14548382
43	0x3e221ed7	0.15832077
44	0xbd3b457f	-0.045720574
45	0x3e0698d7	0.13144241
46	0x3e088536	0.13332066
47	0xbe59963a	-0.21248713
48	0xbe23f682	-0.16012004
49	0x39faea85	0.00047858446
50	0x3d2fe8fb	0.042946797
51	0xbde94ec1	-0.11391974
52	0xbcc297cf	-0.023754029
53	0xbd4c54cb	-0.049885552
54	0x3d0665ca	0.032811917
55	0xbde9abcb	-0.1140972
56	0x3dce2f30	0.10067594
57	0x3de42b27	0.11141043
58	0xbe14f1cf	-0.14545368
59	0xbbfe404c	-0.0077591296
60	0xbca86cd1	-0.0205597
61	0x3d3e7b20	0.04650414
62	0x3e28f269	0.16498722
63	0x3dc2577f	0.09489345
64	0xbc81f5c7	-0.015864266
65	0x3e39d272	0.18146685
66	0xbd4fe514	-0.050755575
67	0xbd2a792b	-0.04161946
68	0x3c2c8aab	0.010531108
69	0xbe0e1891	-0.13876559
70	0x3cc07cd8	0.02349703
71	0xbe123b6d	-0.14280482
72	0x3d3bd0db	0.045853477
73	0x3d3043c4	0.043033376
74	0x3d41b527	0.0472919
75	0xbe0b1f01	-0.13586046
76	0xbe1ff0d0	-0.15619206
77	0x3dd57e10	0.10424435
78	0x3e41cceb	0.18925826
79	0xbe1550d2	-0.14581612
80	0x3db9175c	0.090376586
81	0xbe21f532	-0.15816191
82	0x3c21674a	0.009851286
83	0x3e2ca68a	0.16860405
84	0x3e09e065	0.13464506
85	0xbe0d89cb	-0.13822095
86	0x3de8e231	0.113712676
87	0x3dc37f6a	0.09545787
88	0x3bf2f0a5	0.007413941
89	0x3e3fd564	0.18733746
90	0xbdcc40b7	-0.09973281
91	0xbd579389	-0.052630935
92	0xbdc6a8a8	-0.097001374
93	0x3c356958	0.011072479
94	0x3d48b0f9	0.0489969
95	0x3cb96fe9	0.02263637
96	0xbdef61cd	-0.11688576
97	0xbda62cf8	-0.08114046
98	0x3da4510c	0.08023271
99	0xbe391ed4	-0.18078166
100	0xbd2d6d25	-0.042340416
101	0xbc708702	-0.014680626
102	0xbdbb2765	-0.09138373
103	0x3d620f28	0.055190235
104	0x3b064600	0.00204885
105	0x3dfe0d9b	0.12404939
106	0xbce62c3b	-0.028097263
107	0xbe061718	-0.13094747
108	0x3e1cb9bc	0.15305227
109	0x3d109f10	0.035307944
110	0xbd47eced	-0.048809934
111	0xbdfccc5b	-0.12343665
112	0x3d246cc1	0.04014278
113	0xbe3fcc87	-0.18730365
114	0x3d801084	0.0625315
115	0x3dcc48e8	0.09974843
116	0xbe2bc565	-0.16774519
117	0xbdfce7e9	-0.12348921
118	0xbe095b07	-0.1341363
119	0x3e242d30	0.16032863
120	0x3e2eb13e	0.170598
121	0x3cbd5687	0.023112549
122	0x3e3aa700	0.18227768
123	0xbd8bf99a	-0.06834717
124	0xbe3f623b	-0.18689816
125	0x3d76b502	0.060231216
126	0x3d33d186	0.04390099
127	0x3e282c64	0.16423184
128	0xbd1d96a1	-0.03847373
129	0x3e447403	0.1918488
130	0x3e281528	0.1641432
131	0x3e0e0117	0.13867603
132	0xbe45c929	-0.19315018
133	0x3e25429d	0.16138692
134	0xbe49dc4e	-0.19712946
135	0x3e52b385	0.20576294
136	0xba7919ff	-0.000950247
137	0xbe132a6d	-0.14371653
138	0x3db79356	0.08963649
139	0xbd050f00	-0.03248501
140	0xbe14bd2f	-0.14525293
141	0xbcdc3ef7	-0.026885493
142	0x3d009364	0.031390563
143	0x3e3864b7	0.1800717
144	0xbd141495	-0.03615244
145	0x3d9a38a1	0.07530332
146	0xbbec880a	-0.0072183656
147	0x3cdc49e1	0.026890697
148	0xbbaf42cc	-0.005348539
149	0xbe32d10f	-0.17462562
150	0xbe0c5588	-0.13704503
151	0xbdd364d3	-0.10321965
152	0xbe71dbdf	-0.2361903
153	0xbdd93a75	-0.10606853
154	0xbbdcc654	-0.0067375097
155	0xbe153bd3	-0.14573602
156	0xbdc90347	-0.09815078
157	0xbd557e36	-0.052122317
158	0xbd572abe	-0.052530997
159	0xbe007390	-0.12544084
160	0xbc2a01ff	-0.0103764525
161	0xbd60e585	-0.054906387
162	0x3d93b3c8	0.07212025
163	0x3c94203d	0.018081779
164	0xbd936023	-0.07196071
165	0xbd4b24dc	-0.0495957
166	0x3c032bc6	0.008006042
167	0xbdbf70cd	-0.09347687
168	0x3d14a7d2	0.03629286
169	0x3b0270e3	0.0019903712
170	0x3ddec3c9	0.10877187
171	0x3d37eae8	0.04490176
172	0x3e1e830c	0.15479678
173	0x3c330674	0.0109268315
174	0xbe21c1f9	-0.15796651
175	0x3dae8f14	0.08523384
176	0xbe07e738	-0.13271797
177	0xbd683fdc	-0.056701526
178	0xbd94f90f	-0.07274067
179	0xbdc6363c	-0.09678313
180	0xbd75df25	-0.06002726
181	0x3e471c2b	0.19444339
182	0x3dcbb776	0.09947102
183	0x3d27d69d	0.040976156
184	0x3e33806e	0.17529461
185	0xbe4f2f0f	-0.20232795
186	0x3c731cc0	0.0148383975
187	0x3ddf47cf	0.10902368
188	0x3dbf399f	0.09337162
189	0xbdcced76	-0.100062296
190	0x3d185eb7	0.037199702
191	0xbe018490	-0.12648225
192	0x3d2fda03	0.04293252
193	0xbd908c44	-0.070580035
194	0xbe39c35c	-0.1814093
195	0xbe086328	-0.13319075
196	0xbe243797	-0.16036831
197	0x3d81b201	0.0633278
198	0x3dc90961	0.09816242
199	0xbe2c24ed	-0.16810961
200	0xbd7effe0	-0.06225574
201	0x3c97d7d2	0.018535528
202	0xbe269927	-0.1626936
203	0x3df3953c	0.118936986
204	0x3e3c571b	0.18392603
205	0x3cdee151	0.027207049
206	0xbe11d06c	-0.14239663
207	0x3d323fee	0.043518
208	0x3dc1974e	0.09452687
209	0x3e395b49	0.18101229
210	0xbe03e6b8	-0.12880981
211	0xbe16c2e2	-0.1472278
212	0x3ddd6958	0.10811108
213	0xbca495bb	-0.020090928
214	0xbd9ad572	-0.07560243
215	0xbda40d7f	-0.08010387
216	0xbdbe3e38	-0.09289211
217	0x3e3c3f85	0.18383606
218	0xbcd73364	-0.026269622
219	0x3e059483	0.13044934
220	0x3e3c1012	0.18365505
221	0x3cad605c	0.021164112
222	0x3c9f0eb1	0.019416185
223	0xbc94123e	-0.018075105
224	0x3df2d8de	0.118577704
225	0xbe316b4d	-0.17326088
226	0x3daf90b8	0.08572525
227	0xbcad5fc8	-0.021163836
228	0x3da46747	0.08027511
229	0x3a61b42a	0.00086099154
230	0xbd932c83	-0.07186224
231	0xbceceb8e	-0.028920915
232	0x3dd5ba73	0.10435953
233	0xbe0c4daf	-0.13701509
234	0xbdc80938	-0.09767383
235	0xbd9e3715	-0.0772535
236	0xbdd1a34f	-0.10236227
237	0x3def1802	0.11674501
238	0x3dcb829d	0.09937022
239	0xbd5361a5	-0.051606793
240	0x3e5c63d4	0.21522456
241	0xbdedb70f	-0.11607181
242	0xbe109cfd	-0.14122386
243	0xbd99ea99	-0.07515449
244	0xbe09ede6	-0.13469657
245	0xbe15a6e0	-0.14614439
246	0xbe23ad90	-0.15984178
247	0xbe300de8	-0.17192805
248	0x3d248fa9	0.040176068
249	0x3e0f564e	0.13997766
250	0x3e41bd3b	0.18919842
251	0x3e2a49b2	0.16629675
252	0xbc17fb9a	-0.009276295
253	0x3d260dfd	0.040540684
254	0xbdf13315	-0.11777321
255	0x3daacddc	0.08340046

features.0.bias f4 [16]
0	0xbd0538c5	-0.032524843
1	0x3e05dd19	0.13072623
2	0x3e20efc0	0.15716457
3	0x3c785362	0.015156599
4	0x3dcadf29	0.09905846
5	0xbe2590cc	-0.16168517
6	0xbc0854ad	-0.0083209695
7	0xbe30551b	-0.17219965
8	0x3db20d48	0.086939394
9	0xbe164abb	-0.14676945
10	0xbd9490ec	-0.07254204
11	0x3e2a4915	0.16629441
12	0x3e3aeb26	0.18253765
13	0xbde913d6	-0.113807365
14	0xbde7a923	-0.11311557
15	0x3d083c65	0.03326072

features.1.weight f4 [16]
0	0x3f83d2a3	1.0298656
1	0x3f7ddd30	0.9916563
2	0x3f82cc22	1.0218546
3	0x3f7d2b7f	0.98894495
4	0x3f801b92	1.0008414
5	0x3f7c367d	0.9852064
6	0x3f79d20f	0.9758615
7	0x3f7e865b	0.9942376
8	0x3f7affc9	0.9804655
9	0x3f7867f4	0.9703362
10	0x3f7f18a3	0.9964697
11	0x3f8be74b	1.092996
12	0x3f7a6d0a	0.9782263
13	0x3f85e8d8	1.0461683
14	0x3f7af65b	0.9803216
15	0x3f817553	1.011393

features.1.bias f4 [16]
0	0x3c0c4399	0.008561038
1	0xbcaf2ec9	-0.021384614
2	0x3cadfb56	0.02123801
3	0x3a88344e	0.0010391565
4	0xbd0c4599	-0.03424606
5	0x3aa4f7fb	0.0012586111
6	0xbc8aea11	-0.016957315
7	0xbc2c48b5	-0.010515382
8	0x3c26e343	0.010186019
9	0x3bf1b597	0.0073763835
10	0xbca3ca18	-0.019993827
11	0x3d8eb083	0.06967261
12	0xbab8ee79	-0.0014109156
13	0x3bed64fc	0.0072447043
14	0xbc7c53b5	-0.015400817
15	0xbca8071c	-0.020511203

features.1.running_mean f4 [16]
0	0x3ecdcc61	0.4019499
1	0xbe768e13	-0.24077635
2	0x3ee277d0	0.44232035
3	0x3fdc4cea	1.7210972
4	0xbf867781	-1.050522
5	0x4001a24f	2.0255315
6	0xbf064641	-0.5245095
7	0xbfa0bdba	-1.25579
8	0x3fcba2b3	1.5909027
9	0xbfd0ff22	-1.632786
10	0x3e7cf303	0.24702077
11	0x3f1d0285	0.6133197
12	0x3e1ad0d9	0.15118732
13	0xbe7c9e4e	-0.24669763
14	0x3ed734e1	0.4203253
15	0x3ddc2ab7	0.10750335

features.1.running_var f4 [16]
0	0x3d04329f	0.03227484
1	0x3e875ec3	0.26439485
2	0x3c432908	0.011911638
3	0x3d931587	0.071818404
4	0x3cfbc112	0.030731712
5	0x3e9443e6	0.28958052
6	0x3d13f7d9	0.036125038
7	0x3ddb3c2d	0.10704837
8	0x3d32c704	0.043646827
9	0x3cac1b15	0.021009007
10	0x3cec5d84	0.028853185
11	0x3b1d728e	0.0024024579
12	0x3c85ef45	0.016349444
13	0x3c75ec18	0.015009902
14	0x3d1237b6	0.03569766
15	0x3c71fd3f	0.014769851

features.4.weight f4 [32, 16, 3, 3]
0	0x3d253a48	0.040338784
1	0xbc7e8ed4	-0.015536983
2	0x3bf3d828	0.0074415393
3	0x3c228b90	0.00992097
4	0x3d87307d	0.06601045
5	0x3e0e6c04	0.13908392
6	0xbc5d1753	-0.01349433
7	0x3d504d5f	0.050855037
8	0x3d81a2f2	0.063299075
9	0x3d5cec7b	0.053936463
10	0xbc8e44be	-0.017366763
11	0xbbe4bde9	-0.006980647
12	0x3d830016	0.06396501
13	0x3d6c1543	0.057637464
14	0x3dad4b1e	0.08461593
15	0xbc40eb6f	-0.011774882
16	0x3d33116e	0.043717794
17	0x3d86ade5	0.065761365
18	0xbd6e600a	-0.05819706
19	0x3a34d4d3	0.00068981684
20	0xbcd10260	-0.025513828
21	0x3d23d88d	0.04000144
22	0xbd879abd	-0.06621311
23	0xbc232da8	-0.009959616
24	0x3d1bf9be	0.03807997
25	0xbdbfce68	-0.09365541
26	0xbd9b95d1	-0.075969346
27	0xbd5bc9ff	-0.053659435
28	0x3cdb6842	0.026783112
29	0x3d23af49	0.039962087
30	0xbd809219	-0.06277866
31	0xbbe5b0dc	-0.0070096087
32	0xbd68c8ec	-0.05683224
33	0xbd2dde1a	-0.04244814
34	0x3d540d91	0.05177075
35	0x3cf47505	0.029840956
36	0xbca8419f	-0.020539103
37	0x3c1274b5	0.008938958
38	0x3b3859aa	0.0028129616
39	0x3be09876	0.0068541123
40	0xbd266f09	-0.040633235
41	0xbd8e62f6	-0.06952469
42	0x3d8e9ef0	0.06963909
43	0x3ca2cf60	0.019874275
44	0x3d7cdc2e	0.061733417
45	0xbd36383a	-0.044487216
46	0x3d03a58a	0.032140292
47	0x3d7f9386	0.06239655
48	0x3d1a4988	0.03766778
49	0x3c7892fb	0.015171762
50	0x3dabc370	0.08386886
51	0xbc7a8bcf	-0.015292122
52	0x3c1ca880	0.009561658
53	0x3da4b93d	0.08043144
54	0x3d82fc2a	0.06395753
55	0xbd30238f	-0.04300266
56	0x3d9319e4	0.071826726
57	0x3c5b0b0d	0.013369334
58	0xbc8cbb24	-0.01717908
59	0x3d8db62f	0.069195144
60	0xbd81b9cf	-0.06334268
61	0x3d37e47f	0.044895645
62	0x3d9f6aa0	0.07784009
63	0xbd93c992	-0.07216181
64	0xbd5d63eb	-0.054050367
65	0xbd950a92	-0.07277407
66	0xbcb3d2e8	-0.021951154
67	0xbd970704	-0.07374385
68	0xbc58a4f9	-0.013222926
69	0xba327db0	-0.000680889
70	0x3d435dd4	0.047696903
71	0x3d4bf7e1	0.049796943
72	0x3d45c722	0.04828561
73	0x3d398772	0.045295186
74	0xbd7fd1b6	-0.062455855
75	0xbd6ff2fd	-0.05858134
76	0x3c6f6f4a	0.014613936
77	0x3d81918b	0.06326588
78	0x3c0ac65c	0.008470144
79	0xbb73711a	-0.0037146271
80	0xbda26051	-0.07928527
81	0xbd8a657f	-0.0675764
82	0xbdaefe77	-0.08544629
83	0x3d2a37e8	0.041557223
84	0x3a27f555	0.0006407102
85	0xbd7560c9	-0.059906755
86	0x3cb15bf8	0.0216503
87	0x3bcf5187	0.0063268575
88	0xbc136582	-0.008996369
89	0x3d11c15e	0.0355848
90	0x3d7af7f2	0.061271615
91	0xbd87899f	-0.06618046
92	0xbd70f924	-0.05883135
93	0xbc0ba3ca	-0.008522937
94	0xbda7e47f	-0.08197879
95	0xbdb02f2f	-0.086027496
96	0x3d9ee571	0.07758606
97	0xbb33142b	-0.0027325253
98	0xbd3ff5ec	-0.04686539
99	0xbd3dae1b	-0.046308618
100	0xbda8a3e1	-0.082343824
101	0x3d164dfa	0.036695458
102	0x3cbd8031	0.023132415
103	0xbc632788	-0.013864405
104	0xbd0f3e6a	-0.034971632
105	0x3d844ba7	0.06459742
106	0x3a837501	0.0010029377
107	0x3c2579aa	0.010099808
108	0xbd4744cc	-0.048649594
109	0xbd411b82	-0.047145374
110	0xbb342bfb	-0.0027492035
111	0x3d896fae	0.06710754
112	0xbd045425	-0.03230681
113	0x3c180de7	0.009280658
114	0xbd6a1ed2	-0.0571583
115	0xbce11d5f	-0.027479826
116	0x3d943ae4	0.07237795
117	0x3c1bbed2	0.009505944
118	0x3d97e0df	0.07415938
119	0xbd06586b	-0.032799166
120	0xbddf9b32	-0.10918273
121	0xbdd95ebc	-0.10613772
122	0x3c580ab6	0.013186147
123	0xbd986a6c	-0.07442173
124	0x3cd5a3d9	0.026079105
125	0x3c772eef	0.015086873
126	0x3c2a6335	0.010399629
127	0x3d29dd14	0.041470602
128	0xbc8da6f6	-0.017291527
129	0x3d0edd11	0.034878794
130	0xbd96e211	-0.073673375
131	0xbccdd084	-0.025123842
132	0x3d161253	0.03663857
133	0x3c1a44d6	0.009415826
134	0xbc2b4b67	-0.010454989
135	0xbd1f7f1b	-0.038939577
136	0xbd9b62cc	-0.075872034
137	0x3d1aa200	0.03775215
138	0xbcb35856	-0.021892708
139	0xbcf71589	-0.030161636
140	0x3bcadc66	0.0061908243
141	0x3d244357	0.040103283
142	0xbd933405	-0.07187656
143	0xbd22d426	-0.0397531
144	0x3d92b3f6	0.07163231
145	0x3cb058c0	0.021526694
146	0xbc567904	-0.013090376
147	0xbd28bbe7	-0.041194823
148	0x3b6ade05	0.00358379
149	0x3da4dab4	0.08049527
150	0x3d80baea	0.06285651
151	0x3d68c4cb	0.0568283
152	0xbd0408ea	-0.032235064
153	0x3c997981	0.018734695
154	0xbd8146e9	-0.06312353
155	0x3d3c2521	0.045933846
156	0x3d4cd684	0.050009266
157	0x3cccbe91	0.024993213
158	0x3d9e502c	0.07730135
159	0xbd590e0a	-0.052991904
160	0xbd7faf6e	-0.062423162
161	0xbd76537a	-0.060138203
162	0x3cf8f293	0.030389106
163	0x3b912400	0.0044293404
164	0xbd9e993e	-0.077440724
165	0xba84306e	-0.0010085234
166	0x3d0b7677	0.034048524
167	0xbdd500d3	-0.10400548
168	0x3c81c51e	0.015841063
169	0xbd0947be	-0.033515684
170	0xbaeb17a5	-0.0017936124
171	0x3dd18b5f	0.10231661
172	0x3dc172f6	0.09445755
173	0x3d37f5ed	0.044912267
174	0x3db50158	0.08838147
175	0x3d33eae3	0.043925177
176	0x3cc76332	0.024339292
177	0xbd8ad787	-0.0677939
178	0x35c7cf66	1.4887016e-06
179	0xbd5af4fa	-0.053456284
180	0x3cfc6e37	0.030814273
181	0x3cf44536	0.029818159
182	0xbbfee9c6	-0.007779333
183	0xbd9df3ba	-0.07712503
184	0xbd5561a9	-0.05209509
185	0x3cf7a904	0.03023196
186	0x3d6e1054	0.05812104
187	0x3da2ba9c	0.07945749
188	0xbc9f682b	-0.01945885
189	0x3c1c3839	0.009534889
190	0xbc942ebf	-0.018088697
191	0x3d80f96c	0.062975734
192	0xbce7f072	-0.028312895
193	0x3d3b417f	0.04571676
194	0x3d5d1a4f	0.053980168
195	0xbda47736	-0.0803055
196	0xbc27e84b	-0.010248254
197	0xbcba925e	-0.022774871
198	0xbd08f568	-0.033437163
199	0x3d2891a8	0.041154534
200	0xbc2332e3	-0.009960863
201	0x3d8c82e1	0.06860901
202	0xbd6e57e3	-0.058189284
203	0x3cf7051a	0.0301538
204	0xbdadc56c	-0.08484921
205	0xbd54d0d0	-0.05195695
206	0xbba93548	-0.0051638223
207	0x3d9c9401	0.07645417
208	0x3d47bdff	0.04876518
209	0xbd427950	-0.047478974
210	0x3c48b73e	0.01225072
211	0xbd4a9d0f	-0.04946619
212	0x3ca335de	0.019923147
213	0xbd8987fa	-0.067153886
214	0xbc9d4836	-0.019199472
215	0x3d9d2c63	0.07674482
216	0xbd78088c	-0.060555026
217	0xbd899289	-0.067174025
218	0x3c225982	0.009909036
219	0x3d122d50	0.035687745
220	0x3ab998fa	0.001415997
221	0x3d8bf3ae	0.068335876
222	0xbcaaa087	-0.020828499
223	0xbd0ebf8d	-0.034850646
224	0xbd8eb43a	-0.06967969
225	0xbc4b6a97	-0.01241555
226	0xbc867da4	-0.016417332
227	0x3da3565d	0.07975457
228	0xbc405233	-0.011738348
229	0x3cb7d376	0.0224397
230	0xbc7d846d	-0.015473467
231	0x3d98ca66	0.074604794
232	0x3db843d6	0.08997314
233	0xbc98b0ff	-0.018639086
234	0xbcf34574	-0.029696204
235	0xbdab5946	-0.08366637
236	0x3b215fd2	0.0024623764
237	0xbdab0d94	-0.08352199
238	0xbd4fc80f	-0.0507279
239	0x3d6b99d0	0.057519734
240	0xbd7f3d75	-0.06231447
241	0x3d86f04d	0.065888025
242	0xbb3d42b2	-0.0028878865
243	0x3e1f20f8	0.1553992
244	0x3c70d3c9	0.014698931
245	0x3dff9c29	0.12480957
246	0x3df2356c	0.11826596
247	0x3d8153c1	0.06314803
248	0x3df7d766	0.12101631
249	0xbc265f71	-0.010154591
250	0xbd0ba621	-0.03409398
251	0x3dd168b2	0.10225047
252	0xbd9e59b0	-0.0773195
253	0xbd5064dd	-0.05087744
254	0xbc47e657	-0.012200913
255	0xbd4675d2	-0.048452206

features.4.bias f4 [32]
0	0xbce37548	-0.027765885
1	0xbc3bb1c2	-0.011455955
2	0x3d8c0c0a	0.06838234
3	0xbd115286	-0.03547909
4	0x3d979c72	0.074028865
5	0xbd3cb753	-0.04607327
6	0x3d9cc91c	0.07655546
7	0x3d112e99	0.03544483
8	0x3cc43eff	0.02395582
9	0xbbd055a1	-0.006357864
10	0xbc9f63a6	-0.019456696
11	0xbd8cbd46	-0.068720385
12	0xbdb2707a	-0.087128595
13	0x3d72e6b7	0.059302058
14	0x3dac2462	0.08405377
15	0x3cfc1ee1	0.030776443
16	0xbd0405b2	-0.032231994
17	0x3cbf8d7d	0.023382897
18	0xba9ddde9	-0.0012044284
19	0xbda07a0f	-0.07835781
20	0xbd961eb7	-0.07330077
21	0x3cecdae5	0.02891297
22	0xbca69dc9	-0.02033891
23	0xbcdd374d	-0.027003909
24	0xbd50f2f8	-0.051012963
25	0x3d11814b	0.035523694
26	0xbd4172da	-0.04722867
27	0xbcdd196b	-0.02698966
28	0x3d48f07f	0.04905748
29	0x3d967b5a	0.07347746
30	0x3d97477b	0.07386681
31	0x3d10098c	0.035165355

features.5.weight f4 [32]
0	0x3f8214de	1.0162618
1	0x3f82e52f	1.0226191
2	0x3f79f7ea	0.9764391
3	0x3f772a9e	0.96549404
4	0x3f7e4170	0.993186
5	0x3f80249e	1.0011175
6	0x3f833615	1.025088
7	0x3f7fbc95	0.9989713
8	0x3f853997	1.04082
9	0x3f779f3f	0.96727365
10	0x3f810745	1.0080343
11	0x3f7de1d4	0.9917271
12	0x3f7fdcbf	0.99946207
13	0x3f7c3c74	0.98529744
14	0x3f7a6c9b	0.9782197
15	0x3f81d860	1.0144157
16	0x3f8425a1	1.0323983
17	0x3f74a18f	0.9555902
18	0x3f7a1595	0.9768918
19	0x3f8927f8	1.0715322
20	0x3f83e729	1.030492
21	0x3f785dd8	0.97018194
22	0x3f8206c5	1.0158316
23	0x3f7ef69e	0.9959506
24	0x3f7f778b	0.99791783
25	0x3f79e910	0.9762125
26	0x3f8133b8	1.0093908
27	0x3f7c47a1	0.985468
28	0x3f80e46b	1.0069708
29	0x3f823270	1.0171642
30	0x3f7ed6da	0.9954659
31	0x3f79088d	0.9727867

features.5.bias f4 [32]
0	0xbd2de95a	-0.04245887
1	0xbcc36391	-0.023851188
2	0xbd49ebba	-0.049297072
3	0xbd8a4e1c	-0.067531794
4	0xbcec5593	-0.028849399
5	0xbcabd390	-0.020974904
6	0xbd283a77	-0.04107138
7	0xbcf587fa	-0.029972065
8	0x3cac3365	0.0210206
9	0xbd4c605f	-0.049896594
10	0xbcf167e3	-0.029468482
11	0xbd401631	-0.046896163
12	0xbd20a1ed	-0.039216924
13	0x3cb28f76	0.021796923
14	0xbc8ee243	-0.017441874
15	0xbd69bf1c	-0.05706702
16	0xbc9b8aee	-0.018987145
17	0xbd30b587	-0.043141868
18	0xbb01a4cf	-0.0019782071
19	0xbbbf0cdc	-0.0058303904
20	0xbd1b6553	-0.037938427
21	0xbd815a62	-0.06316067
22	0xbc206c17	-0.009791396
23	0xbca9b5cf	-0.020716576
24	0xbb1b3bbd	-0.002368673
25	0xbce77659	-0.028254675
26	0xbd38c54c	-0.045110032
27	0xbcf25dff	-0.029585836
28	0xbd60c17c	-0.05487202
29	0xbc62c348	-0.013840504
30	0xbc9d9d2e	-0.019239988
31	0xbd0001d0	-0.03125173

features.5.running_mean f4 [32]
0	0xbe35559c	-0.17708439
1	0x3ecd6b27	0.40120813
2	0x3ea241af	0.31690738
3	0xbf68b3b1	-0.9089919
4	0xbf9e4e11	-1.2367574
5	0x3e4c1652	0.1993039
6	0x3e63b748	0.22237885
7	0xbe6eb8b6	-0.23312649
8	0xbd690d25	-0.0568973
9	0x3e3ee827	0.18643247
10	0xbe00dfb2	-0.12585333
11	0xbedb38d1	-0.42816785
12	0xbf636b10	-0.8883524
13	0xbef73fa0	-0.4829073
14	0x3ea50145	0.3222753
15	0x3e92ac61	0.2864714
16	0xbeeb4025	-0.45947376
17	0xbdbbd472	-0.0917138
18	0xbf3b8de6	-0.73263395
19	0xbe3e0ba1	-0.18559124
20	0x3ee581ad	0.44825497
21	0xbdc86220	-0.09784341
22	0x3f1b1912	0.6058513
23	0x3f528dd9	0.8224769
24	0xbb7029bd	-0.0036645972
25	0xbf0d9cee	-0.5531758
26	0x3e5b47e0	0.21414137
27	0x3d5372b1	0.05162305
28	0x3e4ce97d	0.20010944
29	0xbe09e611	-0.1346667
30	0xbe8e6a0a	-0.27815276
31	0xbefc2fb3	-0.49255142

features.5.running_var f4 [32]
0	0x3e7b6ec5	0.24553974
1	0x3e3ec7c9	0.186309
2	0x3e04d3cb	0.12971418
3	0x3e613774	0.2199381
4	0x3ea41cc4	0.32053196
5	0x3e7612bc	0.24030584
6	0x3e1e95c1	0.15486814
7	0x3e5652a6	0.20929965
8	0x3dac0dca	0.084010676
9	0x3e57dd75	0.21080573
10	0x3e0f10be	0.1397123
11	0x3e30665c	0.17226547
12	0x3d8d7b9c	0.06908342
13	0x3e1d7294	0.1537574
14	0x3e9201a7	0.28516886
15	0x3e04c6fd	0.12966533
16	0x3e0b9fc0	0.13635159
17	0x3e627cee	0.2211797
18	0x3e2bd9e1	0.16782333
19	0x3d9d6135	0.076845564
20	0x3e308fa8	0.172423
21	0x3e5ffc9d	0.21873708
22	0x3e483882	0.19552806
23	0x3dfa170c	0.12211427
24	0x3dc7cfa4	0.09756401
25	0x3e377d0a	0.17918792
26	0x3dcd5131	0.10025252
27	0x3e459fdf	0.19299267
28	0x3d9fdbd7	0.07805603
29	0x3db51e20	0.088436365
30	0x3e1dd28c	0.15412349
31	0x3f150e11	0.5822459

features.8.weight f4 [64, 32, 3, 3]
0	0x3cc2bf5b	0.023772886
1	0x3d561a33	0.05227108
2	0x3d59c599	0.05316696
3	0x3d49c0d8	0.049256176
4	0x3cfbb208	0.03072454
5	0x3ce0683b	0.027393451
6	0x3ce25fdb	0.027633598
7	0x3d4e386d	0.05034678
8	0x3ce5c918	0.02804999
9	0xbd7602d5	-0.060061295
10	0xbd42539f	-0.04744303
11	0xbd82904a	-0.06375177
12	0xbcb5295e	-0.022114452
13	0xba798475	-0.0009518334
14	0xbd1d2a99	-0.038370702
15	0xbd23aba0	-0.039958596
16	0xbcb5b9b0	-0.02218327
17	0x3cecc348	0.028901711
18	0xbd1c6fc6	-0.038192533
19	0xbcc801b2	-0.02441487
20	0x3ba2cd4f	0.0049683223
21	0xbd364d06	-0.04450705
22	0xbd318337	-0.043338027
23	0xbcfc6b03	-0.030812746
24	0xbd56e9b6	-0.052468978
25	0xbd82c4e3	-0.063852094
26	0xbd6c2c58	-0.057659477
27	0xbc7881a6	-0.015167629
28	0x3c9e5807	0.019329084
29	0x3d44d7d3	0.04805739
30	0x3ba275cb	0.0049578897
31	0x3d0bdcc6	0.034146093
32	0x3c3b59c4	0.011434976
33	0xbd021955	-0.03176244
34	0xbcfe417e	-0.031037088
35	0xbc95260f	-0.018206624
36	0xbd1fdf3c	-0.039031252
37	0x3b40da19	0.0029426871
38	0xbb5030b8	-0.003176732
39	0xbd246d9f	-0.040143605
40	0xbcb8b5a0	-0.022547543
41	0xbd97cf46	-0.07412581
42	0x3d747584	0.059682384
43	0x3cab6a3b	0.020924678
44	0xbd39ef95	-0.0453945
45	0x3cc074d9	0.023493217
46	0xbd4f703d	-0.05064415
47	0x3d392031	0.045196716
48	0xbd3d15a1	-0.046163205
49	0x3cb6c627	0.022311283
50	0x3d3355ee	0.04378312
51	0x3bfcf8b8	0.0077200793
52	0x3cac36ca	0.02102222
53	0x3bdf06c2	0.0068062255
54	0x3d233395	0.039844114
55	0x3dd5b066	0.10434036
56	0x3d49a9d3	0.049234223
57	0x3c1cb5e3	0.00956485
58	0x3d30f1ba	0.04319928
59	0x3ce069ac	0.027394138
60	0xbb7b837b	-0.003837793
61	0x3cdffa33	0.027340984
62	0x3daef01a	0.085418895
63	0x3bc98ba1	0.0061506783
64	0xbd46c30c	-0.048525855
65	0x3c5b2d7c	0.013377544
66	0xbd1415ac	-0.03615348
67	0x3b7f8040	0.0038986355
68	0xbc4771b6	-0.012173107
69	0x3d0aabed	0.033855367
70	0xbcc35d4f	-0.023848204
71	0xbd1cb366	-0.038257025
72	0xbc03ad95	-0.008036991
73	0x3c2cd19f	0.010548024
74	0xbd1b1d05	-0.037869472
75	0x3d06a477	0.03287169
76	0xbcf902ba	-0.030396808
77	0xbcd5c2b2	-0.026093815
78	0xbcecbeec	-0.028899632
79	0x3c94092e	0.018070783
80	0xbc83296e	-0.016010966
81	0xbc8f23dd	-0.017473156
82	0x3d2d63de	0.04233157
83	0xbd0e118f	-0.034684714
84	0x3c922f56	0.017844837
85	0x3c3d61a5	0.011558925
86	0xbc54c278	-0.012985818
87	0x3d49c840	0.04926324
88	0x3d3c6b9f	0.046001073
89	0x3d02a19d	0.031892408
90	0x3c6be4ef	0.014397844
91	0x3d187572	0.03722138
92	0xbca9f142	-0.020744924
93	0xbd4f45f6	-0.05060383
94	0x3d472c47	0.04862621
95	0xbd02f2bf	-0.031969782
96	0xbcc71621	-0.024302544
97	0xbd020e64	-0.031752005
98	0x3c0b8d44	0.008517567
99	0x3d7ad4a5	0.06123795
100	0xbca21bdc	-0.019788675
101	0x3c4913da	0.012272799
102	0xbd37fa3d	-0.04491638
103	0x3d4d9b55	0.050196964
104	0x3d8348a0	0.064103365
105	0xbc7e7ccd	-0.0155326845
106	0x3cc180b2	0.023620937
107	0xbb1ebd1a	-0.00242216
108	0xbcab1e4d	-0.020888472
109	0x3cec16ea	0.02881952
110	0xbdbc6db2	-0.0920061
111	0xbc90ef3f	-0.017692206
112	0xbc72d3ed	-0.014821035
113	0xbda69b66	-0.08135109
114	0x3cc2d430	0.02378282
115	0x3d084c91	0.033276144
116	0xbd8ec18c	-0.0697051
117	0x3d2c4a82	0.042063244
118	0xbc27298d	-0.010202778
119	0x3d5e448b	0.054264586
120	0xbd2c10b2	-0.04200811
121	0x3d0b2908	0.033974677
122	0xbc749b1e	-0.014929561
123	0x3d504f95	0.050857145
124	0xbd3bcb27	-0.045848038
125	0x3c40d089	0.011768469
126	0xbbd63100	-0.006536603
127	0x3d2a7793	0.04161794
128	0x3ce749af	0.028233377
129	0x3c64b0b9	0.01395815
130	0xbc48f911	-0.012266413
131	0xbd32a1f3	-0.043611478
132	0xbc2bf7e4	-0.010496113
133	0x3d655e1d	0.055997957
134	0x3d763093	0.060104918
135	0xbc2918fe	-0.0103209
136	0x3da26689	0.07929713
137	0x3da202ec	0.079107136
138	0xbc071c43	-0.008246484
139	0x3d353b38	0.04424593
140	0x3ce5aeef	0.028037516
141	0xbcf93d34	-0.030424692
142	0xbd669a7c	-0.05629967
143	0xbb930979	-0.004487213
144	0x3d71a5a7	0.05899587
145	0x3cf7ebb7	0.030263765
146	0xbd553ab5	-0.05205794
147	0xbc6d3f59	-0.014480435
148	0x3cb1de73	0.021712517
149	0xbd05bd5b	-0.032651287
150	0xbc9cdfb4	-0.019149639
151	0x3c816461	0.015794935
152	0x3d1fc4ec	0.03900616
153	0x3d0749d9	0.03302941
154	0xbd3a7398	-0.045520395
155	0xbd92ec13	-0.07173934
156	0x3ce9ada1	0.028525176
157	0x3ba9d936	0.0051833643
158	0x3d40ccd8	0.047070354
159	0x3cedbcde	0.029020723
160	0xbc8b57b8	-0.017009601
161	0x3c799bb2	0.015234875
162	0x3cd95a06	0.026532184
163	0xbc8adb18	-0.016950175
164	0x3d423a93	0.047419142
165	0x3c4dc936	0.012560179
166	0xbb7b1e73	-0.003831771
167	0xbd135ae6	-0.03597536
168	0x3d37b0ec	0.04484646
169	0xbd41504a	-0.04719571
170	0x3d6eeba2	0.058330186
171	0xbca1f570	-0.019770354
172	0xbc4fb981	-0.012678505
173	0xbba48e42	-0.0050218413
174	0x3cca2f8a	0.024680872
175	0xbd88facb	-0.0668846
176	0xbdb86e79	-0.09005446
177	0x3d3c12bb	0.0459163
178	0xbb4324ee	-0.002977665
179	0x3c4a77d9	0.0123576755
180	0x3d152595	0.036412794
181	0xbba0e7a3	-0.0049104257
182	0x3d6c4beb	0.05768959
183	0xbd44a251	-0.04800636
184	0x3d3c2944	0.04593779
185	0x3d84544e	0.06461392
186	0xbd17ef39	-0.037093375
187	0xbce405b4	-0.02783475
188	0x3d005438	0.031330317
189	0xb933d727	-0.00017150921
190	0xbaef5769	-0.0018260303
191	0x3d235fa9	0.03988615
192	0xbc781985	-0.015142803
193	0x3ca349ca	0.019932646
194	0xbcccd77e	-0.025005098
195	0xbcae3499	-0.021265315
196	0xbb3fd713	-0.0029272481
197	0x39952df7	0.0002845374
198	0xbc6a5cb8	-0.014304332
199	0x3c9a0854	0.0188028
200	0x3cc5cf11	0.024146589
201	0xbd1ebf99	-0.03875694
202	0x3d3374d0	0.043812573
203	0x3d3f4bcb	0.04670314
204	0x3c429509	0.011876353
205	0xbb3ae8a9	-0.0028520024
206	0xbccfcb47	-0.025365485
207	0xbd2ad757	-0.04170927
208	0x3becc3f6	0.007225509
209	0xbd05eb47	-0.03269508
210	0xb9f4436e	-0.00046589546
211	0xbd701820	-0.058616757
212	0xbd4bbc55	-0.049740154
213	0xbd27a0ba	-0.040924765
214	0x3d0a852e	0.033818416
215	0x3d751c84	0.059841648
216	0xbd431c61	-0.047634486
217	0xbca809e4	-0.020512529
218	0x3d223bd1	0.039607827
219	0xbc59205c	-0.013252344
220	0xbd20d433	-0.03926487
221	0x3d066bc7	0.03281763
222	0xbd3afead	-0.045653034
223	0x3c4d7924	0.012541089
224	0x3d29ca78	0.041452855
225	0x3d82e5e7	0.06391507
226	0xbd81e32b	-0.06342157
227	0x3c98dfdd	0.018661434
228	0x3c80eb44	0.015737183
229	0x3d05bb58	0.032649368
230	0x3d042333	0.03226013
231	0xbc15ecb9	-0.009150677
232	0xbcb44a19	-0.022007989
233	0xbd1518d5	-0.036400635
234	0x3d410e56	0.047132812
235	0xbd072a0e	-0.03299909
236	0x3cfae2af	0.03062567
237	0x3d157f76	0.03649851
238	0x3d7c06e9	0.061530028
239	0x3d84539a	0.06461258
240	0x3d52043e	0.051273577
241	0xbd5041d7	-0.05084404
242	0xbc1fdb64	-0.009756897
243	0xbd6a8af1	-0.05726141
244	0x3cabd8b0	0.020977348
245	0x3be3ae29	0.0069482517
246	0x3c2e0d2d	0.010623259
247	0x3cc4723a	0.023980249
248	0x3b523aae	0.0032078433
249	0x3c04a34e	0.0080955755
250	0xbce19524	-0.027536936
251	0x3d16011c	0.03662215
252	0xbd0e92e4	-0.034808055
253	0xbd3280a9	-0.04357973
254	0x3d0d29a0	0.034463525
255	0x3d68b4ff	0.056813236

features.8.bias f4 [64]
0	0x3c846918	0.016163394
1	0x3c54609a	0.012962485
2	0xbd59a95e	-0.053140037
3	0xbbc79ea7	-0.006091911
4	0x3d54159b	0.051778417
5	0x39e5175c	0.00043695688
6	0x3d65de42	0.056120165
7	0xbc9b6e35	-0.01897345
8	0x3bb01f45	0.0053748214
9	0x3d025ab1	0.03182477
10	0x3ae523fe	0.001748204
11	0x3d0250a7	0.031815197
12	0x3d46c462	0.04852713
13	0x3d15bb46	0.03655555
14	0x3ca08a41	0.019597175
15	0x3d2ff66e	0.042959623
16	0x3d425a82	0.047449596
17	0xbd662e17	-0.0561963
18	0x3d230161	0.039796237
19	0x3d2f882a	0.042854466
20	0x3d046ca4	0.03233017
21	0xbd0e4081	-0.034729484
22	0x3d35f6dd	0.04442488
23	0x3c40b197	0.011761091
24	0x3cadb743	0.02120555
25	0xbd784a49	-0.06061772
26	0x3d4e855e	0.050420158
27	0xbd3d3286	-0.04619076
28	0x3cbf70fa	0.023369301
29	0x3d5f630d	0.05453782
30	0x3d02465a	0.031805374
31	0xbc4a189f	-0.012334972
32	0xbc440bd7	-0.011965713
33	0xbd1ae5f2	-0.03781695
34	0xbcacbc91	-0.02108601
35	0xbce87ddd	-0.028380329
36	0x3d04952e	0.03236883
37	0x3d093613	0.033498835
38	0xbc2b7527	-0.010464943
39	0x3caa1cc8	0.020765677
40	0x3c510662	0.012757869
41	0xbc9729f3	-0.01845262
42	0x3d1d25ce	0.03836613
43	0xbd465226	-0.048418187
44	0x3c3082ee	0.010773404
45	0x3c68d9a4	0.014212046
46	0xbb59f0d1	-0.003325511
47	0x3c232ef5	0.009959926
48	0x3d1817b7	0.03713199
49	0x3c8d91b9	0.0172814
50	0xbbadcf46	-0.00530425
51	0x3c8bd54a	0.017069478
52	0x3cd65048	0.026161328
53	0xbcb3e118	-0.021957919
54	0xbd3101a8	-0.04321447
55	0x3d093dcb	0.033506196
56	0xbb266b7a	-0.002539365
57	0x3d32b252	0.04362709
58	0x3c1d4a34	0.009600211
59	0x3c064945	0.00819618
60	0x3cc0fe3c	0.023558728
61	0x3d367fdb	0.044555526
62	0xbcad388c	-0.021145128
63	0x3cf4e095	0.029892245

features.9.weight f4 [64]
0	0x3f7d4d97	0.9894652
1	0x3f7c55d8	0.9856849
2	0x3f7a9d91	0.9789668
3	0x3f7f07dd	0.99621373
4	0x3f805298	1.0025206
5	0x3f85cf0b	1.045381
6	0x3f8017f1	1.0007306
7	0x3f82d976	1.0222614
8	0x3f84a29d	1.0362126
9	0x3f7bec06	0.9840702
10	0x3f7b709b	0.982187
11	0x3f77bbb8	0.9677081
12	0x3f778e66	0.9670166
13	0x3f7b7b68	0.9823518
14	0x3f820938	1.0159063
15	0x3f812ba5	1.0091444
16	0x3f77d7e9	0.9681383
17	0x3f7cdb1b	0.9877183
18	0x3f80aaef	1.0052165
19	0x3f842ecf	1.0326785
20	0x3f802dce	1.0013978
21	0x3f75b9c3	0.95986575
22	0x3f797eee	0.97459304
23	0x3f81088e	1.0080736
24	0x3f78bf66	0.9716705
25	0x3f7c39b2	0.98525536
26	0x3f7dfa7c	0.99210334
27	0x3f6bb10c	0.9206703
28	0x3f8560ca	1.0420163
29	0x3f765749	0.96226937
30	0x3f77e544	0.96834207
31	0x3f73aa8d	0.95182115
32	0x3f787e9b	0.97068185
33	0x3f75b3d1	0.95977503
34	0x3f834720	1.0256081
35	0x3f7430a6	0.9538673
36	0x3f854f55	1.0414835
37	0x3f80ffd3	1.0078071
38	0x3f843c80	1.0330963
39	0x3f785d74	0.970176
40	0x3f805c60	1.0028191
41	0x3f785b91	0.9701472
42	0x3f853d14	1.0409265
43	0x3f81fa81	1.0154573
44	0x3f78b798	0.9715514
45	0x3f7cef32	0.98802483
46	0x3f79bce3	0.97553843
47	0x3f7a5ebc	0.97800803
48	0x3f83322f	1.024969
49	0x3f82424c	1.0176482
50	0x3f7d1a9c	0.9886873
51	0x3f788ebe	0.9709281
52	0x3f7afc44	0.98041177
53	0x3f7c5bb3	0.9857742
54	0x3f816e3c	1.0111766
55	0x3f864808	1.0490732
56	0x3f7be334	0.9839356
57	0x3f834c2d	1.0257622
58	0x3f857cab	1.0428671
59	0x3f809bcd	1.0047547
60	0x3f7928cb	0.9732787
61	0x3f7aec59	0.9801689
62	0x3f8289ac	1.0198264
63	0x3f82453d	1.017738

features.9.bias f4 [64]
0	0xbde3d240	-0.111240864
1	0xbd7e1a20	-0.062036633
2	0xbd729176	-0.059220754
3	0xbdc78ef4	-0.09744063
4	0xbd6bda7a	-0.057581402
5	0xbe09ce35	-0.13457568
6	0xbd819c88	-0.06328684
7	0xbd849c1c	-0.06475088
8	0xbd8c6851	-0.06855834
9	0xbdb8749e	-0.09006618
10	0xbdbaaf10	-0.09115422
11	0xbdceee59	-0.10104055
12	0xbd507a2a	-0.050897755
13	0xbd9cbc04	-0.07653049
14	0xbca54c0d	-0.020177865
15	0xbd3a5654	-0.045492485
16	0xbdbf6390	-0.09345162
17	0xbda68e63	-0.08132627
18	0xbd8e6aef	-0.0695399
19	0xbda98a71	-0.08278359
20	0xbcee0462	-0.029054824
21	0xbd796731	-0.060889427
22	0xbd82f6ef	-0.06394755
23	0xbd112208	-0.035432845
24	0xbda2eca3	-0.07955291
25	0xbdb6ac2f	-0.0891956
26	0xbdbfb0ac	-0.09359869
27	0xbde24286	-0.110478446
28	0xbd7e6da6	-0.062116288
29	0xbd653280	-0.055956364
30	0xbc364b60	-0.011126369
31	0xbd77842b	-0.06042878
32	0xbd200880	-0.039070606
33	0xbde489ea	-0.111591175
34	0xbdd0db3f	-0.10198068
35	0xbd995715	-0.07487313
36	0xbda10909	-0.078630514
37	0xbda4536a	-0.080237225
38	0xbd5b73c6	-0.053577207
39	0xbd98b344	-0.07456067
40	0xbdd950d9	-0.106111236
41	0xbd84187f	-0.06449985
42	0xbdc8a3d0	-0.0979687
43	0xbd89eace	-0.067342386
44	0xbdb174e9	-0.08664877
45	0xbd353970	-0.04424423
46	0xbd211f9b	-0.039336782
47	0xbd2d53d4	-0.042316273
48	0xbd8e41b8	-0.069461286
49	0xbda97841	-0.0827489
50	0xbdd2f4a0	-0.10300565
51	0xbe07a365	-0.13245924
52	0xbd5375ac	-0.051625893
53	0xbcc7eaf4	-0.024404027
54	0xbddb242d	-0.10700259
55	0xbe1a8a4a	-0.15091816
56	0xbd915ff2	-0.07098378
57	0xbd84117e	-0.06448649
58	0xbdde7e0e	-0.10863887
59	0xbda08db1	-0.078395255
60	0xbd7d67c9	-0.061866555
61	0xbd872049	-0.06597955
62	0xbd6a9d69	-0.057279024
63	0xbd5fe5f8	-0.054662675

features.9.running_mean f4 [64]
0	0x3e92748e	0.2860455
1	0x3eaa16d2	0.33220536
2	0xbf0fb6ad	-0.56138116
3	0xbeee3cba	-0.46530706
4	0xbeeba2cf	-0.4602265
5	0xbf19e1a8	-0.6010995
6	0xbe8a6f3b	-0.27037987
7	0xbf0222a5	-0.50834113
8	0xbf1b4004	-0.60644555
9	0x3f06d5b6	0.52669847
10	0xbe2b1c1e	-0.16709945
11	0x3f61770d	0.8807228
12	0x3f6747a0	0.90343666
13	0x3f882344	1.0635762
14	0xbf65fb15	-0.89836246
15	0xbe4fd79b	-0.2029709
16	0x3da2be2b	0.07946428
17	0xbe89efec	-0.26940858
18	0x3f70a593	0.94002646
19	0x3f137c9b	0.5761201
20	0xbf74a90c	-0.95570445
21	0xbeda566d	-0.42644063
22	0xbf280259	-0.6562858
23	0xbf5b041d	-0.8555315
24	0xbb879159	-0.0041372
25	0x3d3a7c7a	0.045528866
26	0x3f4fe2e4	0.8120558
27	0xbcd09a0f	-0.025464086
28	0x3c52b06a	0.012859443
29	0xbf5b823a	-0.85745585
30	0xbf66838d	-0.9004448
31	0xbea8c8a0	-0.32965565
32	0xbf0b5692	-0.5442897
33	0x3f2a2849	0.6646772
34	0x3c815078	0.01578544
35	0x3f8d8d62	1.1058772
36	0x3c0fed62	0.008784624
37	0x3e5dcacf	0.21659397
38	0xbe55e45a	-0.2088789
39	0x3ed5ae7b	0.4173468
40	0x3e9e2815	0.30889955
41	0xbf80569d	-1.0026432
42	0x3edd5741	0.43230632
43	0xbe5fddd6	-0.21861967
44	0xbedec0d2	-0.43506485
45	0x3e16b5ec	0.14717835
46	0xbeead0f3	-0.4586254
47	0xbf039eb3	-0.5141403
48	0xbe8eda3d	-0.27900878
49	0xbd527750	-0.051383317
50	0x3eb53e10	0.35398912
51	0x3f821e49	1.0165492
52	0xbe08f430	-0.133744
53	0xbf541d49	-0.82857186
54	0x3f05bb75	0.5223916
55	0x3e730818	0.23733556
56	0x3da3ae03	0.079921745
57	0x3f07c06a	0.53027976
58	0xbd786be4	-0.060649768
59	0xbf42e2c2	-0.76127255
60	0xbf88db36	-1.0691898
61	0xbd82bdd8	-0.06383866
62	0x3e7f89f6	0.24954972
63	0x3f48aef0	0.78391933

features.9.running_var f4 [64]
0	0x3eb43566	0.3519699
1	0x3f14873d	0.5801886
2	0x3f018177	0.5058817
3	0x3e79f40a	0.244095
4	0x3f1dd4cf	0.61652845
5	0x3e37f0d3	0.17962961
6	0x3ec5d247	0.3863699
7	0x3e9c1b03	0.30489358
8	0x3ed929d2	0.4241472
9	0x3f08c7b8	0.53429747
10	0x3e8bd061	0.27307418
11	0x3f16cf4c	0.5891006
12	0x3f8b023d	1.0860058
13	0x3ee4d344	0.44692433
14	0x3ed27ecd	0.41112366
15	0x3e8fc14f	0.2807717
16	0x3f12549d	0.5716036
17	0x3efd2c99	0.49448088
18	0x3ef51d50	0.47873926
19	0x3efeb4c8	0.497473
20	0x3eae9f94	0.34106123
21	0x3f3c07aa	0.73449194
22	0x3f1017e0	0.5628643
23	0x3f070f34	0.52757573
24	0x3f1be29c	0.60892653
25	0x3ecf4028	0.40478635
26	0x3e9b07a4	0.30279267
27	0x3ea6753b	0.32511315
28	0x3e517612	0.20455196
29	0x3edd48e1	0.43219665
30	0x3ee5b2df	0.4486303
31	0x3eec71c0	0.46180534
32	0x3f1b0b9d	0.60564595
33	0x3eabc18d	0.33546105
34	0x3eac3ebb	0.3364161
35	0x3f6f9fdd	0.93603307
36	0x3ef1d40d	0.47232094
37	0x3ef2263f	0.47294804
38	0x3ed4a898	0.41534877
39	0x3f34b02b	0.7058131
40	0x3e8fc3a6	0.28078955
41	0x3f3994f3	0.72492903
42	0x3e9af1d2	0.3026262
43	0x3e9a7864	0.30169976
44	0x3e2f048b	0.17091577
45	0x3f22232f	0.63334936
46	0x3eeaa910	0.4583211
47	0x3e934884	0.28766263
48	0x3ed3cc9f	0.4136705
49	0x3ecc2915	0.39875093
50	0x3e84bf79	0.25927332
51	0x3f164c8a	0.5871054
52	0x3f0c2251	0.5473986
53	0x3ed68654	0.4189936
54	0x3ebfaad9	0.37435034
55	0x3e2a0853	0.16604738
56	0x3e4805f4	0.19533521
57	0x3e97c73b	0.29644188
58	0x3e79c0f3	0.2439001
59	0x3e8fdcd2	0.2809816
60	0x3f2411ea	0.64089835
61	0x3e8e2854	0.27765143
62	0x3eae9a20	0.34101963
63	0x3ee742a6	0.45168036

features.12.weight f4 [128, 64, 3, 3]
0	0xbb14863c	-0.0022663018
1	0x3c9d12fa	0.019174088
2	0xbd0e2406	-0.034702323
3	0x3d455200	0.048173904
4	0x3d2036d1	0.039114777
5	0x3d4b8e21	0.04969609
6	0x3d3675f7	0.044546094
7	0x3c09e853	0.008417207
8	0x3c38e412	0.011284845
9	0xbd1f804e	-0.03894072
10	0xbc3e7946	-0.0116255935
11	0xbc953508	-0.018213764
12	0xbc877abf	-0.016538022
13	0xbc965445	-0.01835073
14	0x3c9760d8	0.018478796
15	0xbae6af9f	-0.0017599947
16	0xbd2e0dc2	-0.04249359
17	0xbd744d26	-0.059643887
18	0xbd61ef33	-0.05515976
19	0xbcbf83fe	-0.023378368
20	0xbcf66d37	-0.030081375
21	0x3cfe6bc7	0.031057252
22	0x3c229f6b	0.0099257035
23	0xbbfaa50a	-0.0076490687
24	0xbb14a13a	-0.0022679106
25	0xbcaf5602	-0.021403316
26	0x3c3d9d6b	0.011573176
27	0xbd1e3317	-0.03862294
28	0xbd33aa24	-0.04386343
29	0xbc57ac40	-0.013163626
30	0xbd4bb171	-0.04972977
31	0x3c8d0f60	0.017219245
32	0x3bf793fb	0.0075554824
33	0x3d0adddc	0.033902988
34	0x3d2d90a0	0.042374253
35	0x3cfdf5d3	0.031001007
36	0xbc03436d	-0.008011681
37	0xbbc3e312	-0.0059779966
38	0xbc019159	-0.007908189
39	0x3c08ce59	0.008349978
40	0xbd31cfe6	-0.043411158
41	0x3cf510cc	0.029915236
42	0x3c1d99db	0.0096192015
43	0xbcbca56b	-0.023028096
44	0x3be80743	0.007080944
45	0x3c031253	0.007999974
46	0x3cd21f93	0.025649821
47	0xbcc88339	-0.024476634
48	0xbd020a0a	-0.031747855
49	0xbce013c5	-0.027353177
50	0x3cb3b135	0.021935085
51	0x3ce96f0c	0.028495334
52	0xbc63a1fa	-0.013893599
53	0xbc420624	-0.011842284
54	0x3c8b60f5	0.017014006
55	0xbd25b1c3	-0.04045273
56	0x3c86a50e	0.016436126
57	0x3c98f182	0.018669847
58	0x3c6eaaf6	0.014567127
59	0xbd0a9c22	-0.033840306
60	0x3b108e5a	0.0022057504
61	0xbba1f276	-0.0049422337
62	0x3ca368ef	0.019947497
63	0x3d55ef7c	0.052230343
64	0xbab9472d	-0.0014135592
65	0x3d292b8b	0.04130129
66	0xbc9ee779	-0.019397484
67	0x3baa6b1d	0.005200757
68	0x3b47d9dc	0.0030494845
69	0xbc36009c	-0.011108544
70	0x3d0a8012	0.033813544
71	0x3d3886f0	0.04505056
72	0x3c9c1650	0.019053608
73	0xbb875e6b	-0.0041311285
74	0x3d0179e2	0.031610377
75	0x3d353dac	0.044248268
76	0xbbf22d72	-0.0073906714
77	0x3af5fb4a	0.0018766907
78	0x3d4401ed	0.0478534
79	0x3d816cfc	0.06319615
80	0x3d9e724f	0.077366464
81	0x3d5be72d	0.053687263
82	0x3d080f5c	0.033217773
83	0x3d1875a1	0.037221555
84	0xbcdece48	-0.027197972
85	0x3d2758fd	0.04085635
86	0x3a0aa2d0	0.0005288543
87	0x3a80e2b4	0.0009833188
88	0x3b5f681d	0.0034089156
89	0x3c174493	0.009232658
90	0xbce4e7f4	-0.027942635
91	0xbc83d514	-0.016092815
92	0x3a55135a	0.0008128189
93	0xbc4e9b8c	-0.012610327
94	0xbd1aa3b3	-0.037753772
95	0x3cac3507	0.02102138
96	0x3ce7aa8d	0.028279567
97	0x3cdbccb5	0.02683101
98	0xbaaed31c	-0.0013338062
99	0x3c11adcb	0.008891533
100	0xbcb7e443	-0.02244771
101	0x3d0aa232	0.033846088
102	0x3b902431	0.0043988456
103	0xbcdbc3fc	-0.026826851
104	0x3c812def	0.015768973
105	0x3bff7a63	0.007796572
106	0xbd08a58c	-0.033361003
107	0xbb85cfc3	-0.004083605
108	0xbd410ad4	-0.047129467
109	0xbd401b4f	-0.046901044
110	0xbc3781f8	-0.011200421
111	0x3c97bcbb	0.01852261
112	0x3d286c20	0.04111874
113	0xbbc7a395	-0.0060924985
114	0xbcef7e33	-0.029234981
115	0xbc3bd42a	-0.011464158
116	0x397473a3	0.00023312731
117	0xbc8482db	-0.016175678
118	0xbc7ba16c	-0.01535831
119	0xbcd61955	-0.026135126
120	0xbc535eda	-0.012901032
121	0x3c74c9f9	0.014940732
122	0x3c7101f1	0.0147099355
123	0x3a702d0c	0.0009161986
124	0xbccc2d75	-0.02492402
125	0xbbd026dc	-0.0063522886
126	0xbccd9e9a	-0.025100041
127	0xbcf28628	-0.029604986
128	0xbd21d1c1	-0.039506678
129	0xbce78b03	-0.028264528
130	0xbd2ab804	-0.041679397
131	0xbd004162	-0.031312354
132	0xbd598138	-0.05310175
133	0xbc30e2a6	-0.010796225
134	0xbd1313e6	-0.03590765
135	0xbd1c3c6c	-0.03814356
136	0xbbf1526f	-0.007364563
137	0xbd210d22	-0.039319165
138	0xbd293d19	-0.041318033
139	0x3c9554a9	0.018228846
140	0x3c9285fb	0.017886152
141	0x3afef4b1	0.0019451586
142	0xbcf955a1	-0.030436339
143	0x3d2b62f5	0.04184242
144	0x3c87922d	0.016549194
145	0x3c94556e	0.018107142
146	0x3c1ed5e3	0.009694549
147	0x3c33f7ed	0.010984403
148	0xbd5b3434	-0.05351658
149	0xbd7203fe	-0.05908584
150	0xbd3b9287	-0.045794036
151	0x3d074167	0.033021357
152	0xbd32ef15	-0.043685038
153	0xbd0a5354	-0.033770874
154	0x3c33cb71	0.010973797
155	0x3c53cde3	0.012927505
156	0xbb14ae57	-0.0022686922
157	0x3ca2d5b1	0.019877287
158	0xbc49c67d	-0.01231539
159	0x3c92a4b2	0.017900798
160	0xbc929ec1	-0.017897965
161	0x3bdc9796	0.0067319376
162	0xbd0c4d02	-0.034253128
163	0x3c9e6d87	0.019339336
164	0xbd5af223	-0.053453576
165	0xbd7bfc68	-0.06152001
166	0x395925bf	0.00020708794
167	0xbcdd417f	-0.02700877
168	0xbce4d07a	-0.02793144
169	0xbd26909a	-0.040665247
170	0xbd11f78a	-0.035636462
171	0x3ca61460	0.020273387
172	0x3d01d7ce	0.031699948
173	0x3c7ba022	0.015358003
174	0x3c10164c	0.0087943785
175	0xbcb9f2f0	-0.02269885
176	0x3cf647a5	0.03006346
177	0xbd28b88a	-0.041191615
178	0xbd0de50a	-0.034642257
179	0xbd812c68	-0.06307298
180	0x3cdcb861	0.026943387
181	0x3cd21acc	0.025647543
182	0xbcaf1415	-0.02137188
183	0x3af50191	0.0018692483
184	0xbc2a5c0c	-0.010397922
185	0xbca69922	-0.020336691
186	0xbcece258	-0.028916523
187	0xbd052f59	-0.032515857
188	0x3c8c1c91	0.017103465
189	0xbab4e9b6	-0.0013802561
190	0xbc7c9c91	-0.015418188
191	0xbbf26463	-0.007397221
192	0xbcf7fb7e	-0.030271288
193	0xbcb80f50	-0.02246824
194	0xbc746700	-0.014917135
195	0x3d65fd61	0.056149844
196	0xbb8d8098	-0.004318308
197	0x3d26b01c	0.040695295
198	0xbc338129	-0.010956087
199	0x3c356d14	0.0110733695
200	0xbd01c211	-0.031679217
201	0x3c044a85	0.0080744075
202	0xbc5c1fe9	-0.013435342
203	0x3d06279c	0.03275262
204	0xbc5d6dac	-0.013514917
205	0x3cb92a3f	0.022603152
206	0x3d50d44a	0.050983705
207	0x3c909217	0.017647786
208	0xbcb7348d	-0.022363925
209	0xbc1c635b	-0.009545173
210	0x3cc8f9bd	0.024533147
211	0x3cc7232a	0.02430876
212	0xbc5f6699	-0.013635301
213	0xbb86bdab	-0.0041119657
214	0x3cccadc7	0.024985207
215	0xbce640c0	-0.028107047
216	0xbcb3c3fb	-0.021944037
217	0xbc85bde5	-0.0163259
218	0xbd59e608	-0.05319789
219	0xbd1030ca	-0.03520278
220	0xbd4be8e7	-0.04978266
221	0xbd02dfd0	-0.031951725
222	0xbd7c8bc6	-0.061656736
223	0x3bcb58e1	0.0062056636
224	0xbcefbc88	-0.029264703
225	0xbbfea476	-0.00777107
226	0x395c8a61	0.00021032385
227	0xbcd12ad5	-0.02553312
228	0xbc1536d1	-0.0091073075
229	0xbd0ebdaf	-0.034848865
230	0xbc2f5a4f	-0.010702684
231	0x3cafe7cd	0.021472836
232	0x3bff805c	0.007797284
233	0xbbb7b12d	-0.005605838
234	0x3b36e2d2	0.0027906192
235	0xbccf0e40	-0.02527535
236	0xbb795c31	-0.0038049335
237	0x3c24a461	0.010048957
238	0xbc0d2d90	-0.00861682
239	0xbb04b4c6	-0.002024935
240	0x3cc82182	0.02443004
241	0x3cceb561	0.025232973
242	0x3cfca086	0.030838262
243	0xbbf21882	-0.0073881755
244	0x3c574705	0.013139491
245	0x3cd5d175	0.026100853
246	0x3bb8642d	0.0056271763
247	0xbd032aa0	-0.032023072
248	0xbc2e7b18	-0.010649465
249	0xbc9eafba	-0.019370902
250	0x3d0e0a69	0.034677897
251	0xbc913568	-0.017725661
252	0xbc74e952	-0.014948206
253	0x3cb70d25	0.022345135
254	0x3cc6fbfd	0.02429008
255	0x3cac74ce	0.02105179

features.12.bias f4 [128]
0	0x3d2110fd	0.039322842
1	0x3d1a84b3	0.037724208
2	0xbb683bab	-0.0035435956
3	0xbc9481eb	-0.018128356
4	0x39feead2	0.0004862161
5	0xba68ffc2	-0.00088882085
6	0xbba461a6	-0.0050165234
7	0x3d1d7d5f	0.03844964
8	0xbcbd6f83	-0.023124462
9	0xbc92a69e	-0.017901715
10	0xbb91dc2d	-0.004451296
11	0xbd20ca66	-0.039255522
12	0xbd1ee198	-0.03878936
13	0x3d199680	0.037497044
14	0xbd13adca	-0.03605441
15	0xbcb94d65	-0.022619912
16	0xbcc18404	-0.02362252
17	0xbc5283fa	-0.0128488485
18	0x3d108df5	0.03529163
19	0xbc8f7701	-0.0175128
20	0xbc2ba585	-0.010476475
21	0x3bf3bec9	0.007438515
22	0x3c0a51f4	0.008442391
23	0xbd06f5b3	-0.03294916
24	0x3c49c66d	0.012315375
25	0x3c6a02a7	0.014282859
26	0xbc9e1598	-0.019297406
27	0x3d11f534	0.035634235
28	0xbd17b4af	-0.037037548
29	0xbc1b91e6	-0.009495234
30	0xbd226aa5	-0.039652485
31	0xbc24c156	-0.0100558605
32	0xbce106f4	-0.027469136
33	0xbd2a7a7d	-0.04162072
34	0xbccd2cbd	-0.025045747
35	0xbd0706ba	-0.0329654
36	0x3ca1b83a	0.019741166
37	0xbc6c9c31	-0.014441536
38	0xbcb26383	-0.021775967
39	0x3cbf6c2b	0.023367008
40	0x3c906599	0.01762657
41	0xbd3099d8	-0.043115467
42	0xbd1d85d1	-0.038457695
43	0xbcc2e8dd	-0.023792678
44	0x3bc26a9c	0.005933119
45	0xbc036438	-0.0080194995
46	0x3ce1ef65	0.027579973
47	0x3b9dbb6f	0.0048136036
48	0xbcdd9841	-0.02705014
49	0xbc9bcf72	-0.019019816
50	0x3c8d65e3	0.017260497
51	0x3cb88131	0.02252254
52	0x3c4d6c3d	0.012538013
53	0xbcd3577d	-0.025798554
54	0xbcf54d2a	-0.029944021
55	0xbca32d7c	-0.01991915
56	0x3c277b0d	0.010222209
57	0xbd086f0f	-0.03330904
58	0xbcf18e70	-0.029486865
59	0x3d263bf5	0.040584523
60	0xbc274dfc	-0.010211464
61	0x3c2a5129	0.010395327
62	0xbc4ff919	-0.012693667
63	0xbd1d4643	-0.038397085
64	0x3d172cd8	0.036908
65	0x3d150215	0.03637894
66	0xbd174948	-0.03693512
67	0x3cecf4dd	0.028925354
68	0x3d0260bd	0.031830538
69	0x3d0d8518	0.034550756
70	0xbc1564e4	-0.0091182925
71	0xbd1f134a	-0.038836755
72	0x3ccb0694	0.02478341
73	0x3cb6514b	0.02225556
74	0xb765c82a	-1.3696068e-05
75	0xbd21e413	-0.03952415
76	0xbcca255e	-0.024676021
77	0xbd262afb	-0.040568333
78	0xba717d92	-0.0009212132
79	0x3d1d83e0	0.038455844
80	0x3b11bce7	0.0022237839
81	0xbcba23f4	-0.022722222
82	0xbc9da4f2	-0.019243691
83	0x3c971778	0.018443808
84	0xbceac2f6	-0.028657418
85	0x3b873f86	0.0041274456
86	0x3d0c869b	0.034308057
87	0x3c1e5602	0.009664061
88	0x3c00fb1a	0.007872367
89	0x3d086e5d	0.033308376
90	0xbb7d9c5a	-0.003869793
91	0xbd1aa196	-0.037751757
92	0x3d110753	0.035407376
93	0x3bc8c97c	0.0061275344
94	0xbb1d6491	-0.002401624
95	0xbc0d8cf7	-0.008639566
96	0x3c4ebad5	0.012617786
97	0xbc8e2734	-0.017352678
98	0x3cc07a0f	0.023495702
99	0xbd130259	-0.03589091
100	0x3cf0bd28	0.029387072
101	0x3d164dfd	0.03669547
102	0xbd079a62	-0.033106215
103	0xbcf25e79	-0.029586064
104	0xbd24c120	-0.04022324
105	0x3ccc545f	0.024942575
106	0x3c6c50cd	0.014423561
107	0x3c701291	0.014652864
108	0x3cacfef3	0.021117663
109	0x3ce36237	0.027756793
110	0x3cf76786	0.030200731
111	0xbc11729c	-0.008877423
112	0x3c90d69c	0.017680459
113	0xbaaa79ae	-0.0013006234
114	0x3cf35110	0.02970174
115	0x3cecaf00	0.02889204
116	0x3ce32adc	0.027730398
117	0x3c96fe7e	0.018431898
118	0x3bbcecbb	0.005765525
119	0xbc34a78f	-0.011026277
120	0x3c6558ca	0.01399822
121	0x3cdb4a1e	0.02676874
122	0x3d1b6318	0.0379363
123	0x3c94c5ed	0.018160785
124	0x3cd807ff	0.026371
125	0xbc076eb9	-0.008266144
126	0xbc402bd5	-0.0117292
127	0xbcac50d6	-0.02103464

features.13.weight f4 [128]
0	0x3f891a2d	1.0711113
1	0x3f89dc46	1.0770347
2	0x3f8886fc	1.0666194
3	0x3f8e74ab	1.1129354
4	0x3f8733f1	1.0562726
5	0x3f8abb9c	1.0838504
6	0x3f8d8b52	1.1058142
7	0x3f8d9f41	1.1064225
8	0x3f8a9bd3	1.0828804
9	0x3f877234	1.0581727
10	0x3f894623	1.0724529
11	0x3f8cdee7	1.1005524
12	0x3f8f040e	1.1173112
13	0x3f8923db	1.0714067
14	0x3f8ca28a	1.0987103
15	0x3f8d163f	1.1022414
16	0x3f887f8b	1.0663923
17	0x3f8b0482	1.0860751
18	0x3f887fbd	1.0663983
19	0x3f888cd2	1.0667975
20	0x3f89bf8e	1.0761583
21	0x3f89e510	1.0773029
22	0x3f8602a9	1.0469562
23	0x3f8ccd40	1.1000137
24	0x3f90be36	1.1308048
25	0x3f872967	1.055951
26	0x3f86c920	1.0530128
27	0x3f8a5c12	1.0809348
28	0x3f8b7875	1.0896136
29	0x3f856210	1.0420551
30	0x3f8a420d	1.0801407
31	0x3f874867	1.056897
32	0x3f87f129	1.0620471
33	0x3f8b8bce	1.090204
34	0x3f85eab5	1.0462252
35	0x3f87bf7a	1.0605309
36	0x3f8ae1fc	1.0850215
37	0x3f8a8dfd	1.0824581
38	0x3f8d4d45	1.1039206
39	0x3f8c8dee	1.0980814
40	0x3f90824b	1.1289762
41	0x3f887b93	1.0662712
42	0x3f88d8c3	1.069115
43	0x3f89f9cd	1.0779358
44	0x3f8b1761	1.086651
45	0x3f8d16d3	1.102259
46	0x3f8b4fbb	1.0883707
47	0x3f83a9b8	1.0286169
48	0x3f90d8fc	1.1316218
49	0x3f8c8b53	1.0980018
50	0x3f8d93ec	1.1060767
51	0x3f89dbe3	1.0770229
52	0x3f89ddba	1.077079
53	0x3f8ed1a6	1.115773
54	0x3f861c45	1.0477377
55	0x3f882d09	1.0638744
56	0x3f8d476d	1.1037422
57	0x3f914557	1.1349286
58	0x3f88101d	1.0629917
59	0x3f8b838b	1.0899519
60	0x3f8a6a41	1.0813676
61	0x3f8c6b5a	1.0970261
62	0x3f88e6e9	1.0695468
63	0x3f89618d	1.0732895
64	0x3f88c721	1.0685769
65	0x3f90dc1a	1.131717
66	0x3f8a4291	1.0801564
67	0x3f889f33	1.0673584
68	0x3f8791d7	1.0591382
69	0x3f875551	1.0572912
70	0x3f8d9811	1.1062032
71	0x3f872b25	1.0560042
72	0x3f898ebf	1.0746688
73	0x3f85c841	1.0451738
74	0x3f89f79d	1.077869
75	0x3f892441	1.0714189
76	0x3f861bb5	1.0477206
77	0x3f903d6a	1.1268742
78	0x3f845095	1.0337092
79	0x3f8dd238	1.1079779
80	0x3f8c3671	1.0954114
81	0x3f86c2a9	1.0528156
82	0x3f8864c4	1.0655751
83	0x3f8700a1	1.0547067
84	0x3f891929	1.0710803
85	0x3f8b8dab	1.0902609
86	0x3f8954dc	1.0729022
87	0x3f8d1c21	1.1024209
88	0x3f8d4c09	1.1038829
89	0x3f8c3dff	1.095642
90	0x3f84d384	1.037705
91	0x3f89b900	1.0759583
92	0x3f8e5778	1.1120443
93	0x3f88fb0f	1.0701617
94	0x3f871889	1.0554363
95	0x3f86dc3e	1.0535963
96	0x3f88be40	1.068306
97	0x3f8900f7	1.070342
98	0x3f879f7d	1.0595547
99	0x3f8b80a7	1.0898637
100	0x3f8876fb	1.066131
101	0x3f8ad41b	1.084598
102	0x3f88c3cc	1.0684752
103	0x3f8d3330	1.1031246
104	0x3f878294	1.0586724
105	0x3f859dfd	1.0438839
106	0x3f863562	1.0485041
107	0x3f89f219	1.0777007
108	0x3f8e570e	1.1120317
109	0x3f8a5947	1.0808495
110	0x3f88256c	1.063642
111	0x3f89907e	1.074722
112	0x3f8cc777	1.0998372
113	0x3f865d3b	1.0497202
114	0x3f898d19	1.0746185
115	0x3f886693	1.0656303
116	0x3f8d7f13	1.1054405
117	0x3f8bcf6c	1.0922675
118	0x3f882a95	1.0637995
119	0x3f8eb2f4	1.1148362
120	0x3f8edec8	1.1161737
121	0x3f881abf	1.0633162
122	0x3f8cfa32	1.1013854
123	0x3f8caed6	1.0990856
124	0x3f8d4fc7	1.1039971
125	0x3f8b3699	1.0876037
126	0x3f8c7e84	1.097611
127	0x3f8acf36	1.0844486
